…
in: ziffer_raw/7_ROI4_20210423-231337.jpg  -  out: ziffer_resize/7_ROI4_20210423-231337.jpg
in: ziffer_raw/4_1.jpg  -  out: ziffer_resize/4_1.jpg
in: ziffer_raw/7_7_nt6_20210625-172323.jpg  -  out: ziffer_resize/7_7_nt6_20210625-172323.jpg
in: ziffer_raw/NaN_20200911-170139_ROI5.jpg  -  out: ziffer_resize/NaN_20200911-170139_ROI5.jpg
dig-s0
a_output_actual/dig-s0
File Exists
Model: "sequential"
_________________________________________________________________
Layer (type)                 Output Shape              Param #   
=================================================================
batch_normalization (BatchNo (None, 32, 20, 3)         12        
_________________________________________________________________
conv2d (Conv2D)              (None, 32, 20, 32)        896       
_________________________________________________________________
max_pooling2d (MaxPooling2D) (None, 16, 10, 32)        0         
_________________________________________________________________
conv2d_1 (Conv2D)            (None, 16, 10, 64)        18496     
_________________________________________________________________
max_pooling2d_1 (MaxPooling2 (None, 8, 5, 64)          0         
_________________________________________________________________
conv2d_2 (Conv2D)            (None, 8, 5, 64)          36928     
_________________________________________________________________
max_pooling2d_2 (MaxPooling2 (None, 4, 2, 64)          0         
_________________________________________________________________
flatten (Flatten)            (None, 512)               0         
_________________________________________________________________
dense (Dense)                (None, 512)               262656    
_________________________________________________________________
dense_1 (Dense)              (None, 11)                5643      
=================================================================
Total params: 324,631
Trainable params: 324,625
Non-trainable params: 6
_________________________________________________________________
1047
(1047, 32, 20, 3)
(1047, 11)
(837, 32, 20, 3)
(210, 32, 20, 3)
Epoch 1/100
  1/210 [..............................] - ETA: 1:47 - loss: 0.0000e+00 - accuracy: 1.0000
…
========================] - ETA: 0s - loss: 0.0020 - accuracy: 0.9989210/210 [==============================] - 2s 10ms/step - loss: 0.0020 - accuracy: 0.9989 - val_loss: 3.2924e-08 - val_accuracy: 1.0000
dig-s0
File Exists
dig-s1
a_output_actual/dig-s1
File Exists
Model: "sequential_1"
_________________________________________________________________
Layer (type)                 Output Shape              Param #   
=================================================================
batch_normalization_1 (Batch (None, 32, 20, 3)         12        
_________________________________________________________________
conv2d_3 (Conv2D)            (None, 32, 20, 32)        896       
_________________________________________________________________
max_pooling2d_3 (MaxPooling2 (None, 16, 10, 32)        0         
_________________________________________________________________
conv2d_4 (Conv2D)            (None, 16, 10, 64)        18496     
_________________________________________________________________
max_pooling2d_4 (MaxPooling2 (None, 8, 5, 64)          0         
_________________________________________________________________
conv2d_5 (Conv2D)            (None, 8, 5, 64)          36928     
_________________________________________________________________
max_pooling2d_5 (MaxPooling2 (None, 4, 2, 64)          0         
_________________________________________________________________
flatten_1 (Flatten)          (None, 512)               0         
_________________________________________________________________
dense_2 (Dense)              (None, 256)               131328    
_________________________________________________________________
dense_3 (Dense)              (None, 11)                2827      
=================================================================
Total params: 190,487
Trainable params: 190,481
Non-trainable params: 6
_________________________________________________________________
1047
(1047, 32, 20, 3)
(1047, 11)
(837, 32, 20, 3)
(210, 32, 20, 3)
Epoch 1/100
  1/210 [..............................] - ETA: 1:42 - loss: 0.0000e+00 - accuracy: 1.0000
…
20220208	1047	97	8.86287693901977e-07	0.8750143051147461
20220208	1047	98	0.00031101194326765835	0.15849950909614563
20220208	1047	99	0.026411646977066994	0.4287777245044708
20220208	1047	100	0.0021930038928985596	0.7361544370651245
dig-s1
File Exists
ziffer_resize/1_D5_2020-08-16_02-14-25.jpg 1 7
ziffer_resize/6_6b.jpg 6 5
ziffer_resize/8_2022-01-09_1.jpg 8 -1
dig-s2
a_output_actual/dig-s2
File Exists
Model: "sequential_2"
_________________________________________________________________
Layer (type)                 Output Shape              Param #   
=================================================================
batch_normalization_2 (Batch (None, 32, 20, 3)         12        
_________________________________________________________________
conv2d_6 (Conv2D)            (None, 32, 20, 32)        896       
_________________________________________________________________
max_pooling2d_6 (MaxPooling2 (None, 16, 10, 32)        0         
_________________________________________________________________
conv2d_7 (Conv2D)            (None, 16, 10, 32)        9248      
_________________________________________________________________
max_pooling2d_7 (MaxPooling2 (None, 8, 5, 32)          0         
_________________________________________________________________
conv2d_8 (Conv2D)            (None, 8, 5, 32)          9248      
_________________________________________________________________
max_pooling2d_8 (MaxPooling2 (None, 4, 2, 32)          0         
_________________________________________________________________
flatten_2 (Flatten)          (None, 256)               0         
_________________________________________________________________
dense_4 (Dense)              (None, 256)               65792     
_________________________________________________________________
dense_5 (Dense)              (None, 11)                2827      
=================================================================
Total params: 88,023
Trainable params: 88,017
Non-trainable params: 6
_________________________________________________________________
1047
(1047, 32, 20, 3)
(1047, 11)
(837, 32, 20, 3)
(210, 32, 20, 3)
Epoch 1/100
  1/210 [..............................] - ETA: 1:33 - loss: 0.0000e+00 - accuracy: 1.0000
…
20220208	1047	96	0.0006816040840931237	1.8624221411300823e-05
20220208	1047	97	0.019621875137090683	0.11343719810247421
20220208	1047	98	0.0032269232906401157	0.003015592461451888
20220208	1047	99	0.0014193319948390126	0.011575490236282349
20220208	1047	100	0.007008531596511602	0.006179632619023323
dig-s2
File Exists
ziffer_resize/NaN_0_ht6_20210628-182853.jpg -1 9
dig-s3
a_output_actual/dig-s3
File Exists
Model: "sequential_3"
_________________________________________________________________
Layer (type)                 Output Shape              Param #   
=================================================================
batch_normalization_3 (Batch (None, 32, 20, 3)         12        
_________________________________________________________________
conv2d_9 (Conv2D)            (None, 32, 20, 32)        896       
_________________________________________________________________
max_pooling2d_9 (MaxPooling2 (None, 16, 10, 32)        0         
_________________________________________________________________
conv2d_10 (Conv2D)           (None, 16, 10, 32)        9248      
_________________________________________________________________
max_pooling2d_10 (MaxPooling (None, 8, 5, 32)          0         
_________________________________________________________________
conv2d_11 (Conv2D)           (None, 8, 5, 32)          9248      
_________________________________________________________________
max_pooling2d_11 (MaxPooling (None, 4, 2, 32)          0         
_________________________________________________________________
flatten_3 (Flatten)          (None, 256)               0         
_________________________________________________________________
dense_6 (Dense)              (None, 128)               32896     
_________________________________________________________________
dense_7 (Dense)              (None, 11)                1419      
=================================================================
Total params: 53,719
Trainable params: 53,713
Non-trainable params: 6
_________________________________________________________________
1047
(1047, 32, 20, 3)
(1047, 11)
(837, 32, 20, 3)
(210, 32, 20, 3)
Epoch 1/100
  1/210 [..............................] - ETA: 1:41 - loss: 1.1921e-07 - accuracy: 1.0000
…
