…
in: ziffer_raw/NaN_ziffer4_2020-05-17_21-50-12.jpg  -  out: ziffer_resize/NaN_ziffer4_2020-05-17_21-50-12.jpg
in: ziffer_raw/NaN_20200814-015636_digit3.jpg  -  out: ziffer_resize/NaN_20200814-015636_digit3.jpg
in: ziffer_raw/0_ziffer4_2020-02-11_15-31-20.jpg  -  out: ziffer_resize/0_ziffer4_2020-02-11_15-31-20.jpg
dig-s0
a_output_actual/dig-s0
File Exists
Model: "sequential"
_________________________________________________________________
Layer (type)                 Output Shape              Param #   
=================================================================
batch_normalization (BatchNo (None, 32, 20, 3)         12        
_________________________________________________________________
conv2d (Conv2D)              (None, 32, 20, 32)        896       
_________________________________________________________________
max_pooling2d (MaxPooling2D) (None, 16, 10, 32)        0         
_________________________________________________________________
conv2d_1 (Conv2D)            (None, 16, 10, 64)        18496     
_________________________________________________________________
max_pooling2d_1 (MaxPooling2 (None, 8, 5, 64)          0         
_________________________________________________________________
conv2d_2 (Conv2D)            (None, 8, 5, 64)          36928     
_________________________________________________________________
max_pooling2d_2 (MaxPooling2 (None, 4, 2, 64)          0         
_________________________________________________________________
flatten (Flatten)            (None, 512)               0         
_________________________________________________________________
dense (Dense)                (None, 512)               262656    
_________________________________________________________________
dense_1 (Dense)              (None, 11)                5643      
=================================================================
Total params: 324,631
Trainable params: 324,625
Non-trainable params: 6
_________________________________________________________________
1067
(1067, 32, 20, 3)
(1067, 11)
(853, 32, 20, 3)
(214, 32, 20, 3)
Epoch 1/100
  1/214 [..............................] - ETA: 1:38 - loss: 2.6822e-07 - accuracy: 1.0000
…
0.0079 - accuracy: 0.9971214/214 [==============================] - 2s 8ms/step - loss: 0.0079 - accuracy: 0.9970 - val_loss: 0.1435 - val_accuracy: 0.9907
dig-s0
File Exists
ziffer_resize/NaN_0_ht6_20210628-182853.jpg -1 9
dig-s1
a_output_actual/dig-s1
File Exists
Model: "sequential_1"
_________________________________________________________________
Layer (type)                 Output Shape              Param #   
=================================================================
batch_normalization_1 (Batch (None, 32, 20, 3)         12        
_________________________________________________________________
conv2d_3 (Conv2D)            (None, 32, 20, 32)        896       
_________________________________________________________________
max_pooling2d_3 (MaxPooling2 (None, 16, 10, 32)        0         
_________________________________________________________________
conv2d_4 (Conv2D)            (None, 16, 10, 64)        18496     
_________________________________________________________________
max_pooling2d_4 (MaxPooling2 (None, 8, 5, 64)          0         
_________________________________________________________________
conv2d_5 (Conv2D)            (None, 8, 5, 64)          36928     
_________________________________________________________________
max_pooling2d_5 (MaxPooling2 (None, 4, 2, 64)          0         
_________________________________________________________________
flatten_1 (Flatten)          (None, 512)               0         
_________________________________________________________________
dense_2 (Dense)              (None, 256)               131328    
_________________________________________________________________
dense_3 (Dense)              (None, 11)                2827      
=================================================================
Total params: 190,487
Trainable params: 190,481
Non-trainable params: 6
_________________________________________________________________
1067
(1067, 32, 20, 3)
(1067, 11)
(853, 32, 20, 3)
(214, 32, 20, 3)
Epoch 1/100
  1/214 [..............................] - ETA: 1:21 - loss: 0.0000e+00 - accuracy: 1.0000
…
20220215	1067	97	3.363672362866055e-07	0.1641884595155716
20220215	1067	98	0.00101582077331841	0.00016802467871457338
20220215	1067	99	0.006017005071043968	0.02498651295900345
20220215	1067	100	0.00013643705460708588	0.03625708818435669
dig-s1
File Exists
ziffer_resize/4.0_dig5_20210924-075240.jpg 4 9
ziffer_resize/4_4_8_20210727-092315.jpg 4 9
dig-s2
a_output_actual/dig-s2
File Exists
Model: "sequential_2"
_________________________________________________________________
Layer (type)                 Output Shape              Param #   
=================================================================
batch_normalization_2 (Batch (None, 32, 20, 3)         12        
_________________________________________________________________
conv2d_6 (Conv2D)            (None, 32, 20, 32)        896       
_________________________________________________________________
max_pooling2d_6 (MaxPooling2 (None, 16, 10, 32)        0         
_________________________________________________________________
conv2d_7 (Conv2D)            (None, 16, 10, 32)        9248      
_________________________________________________________________
max_pooling2d_7 (MaxPooling2 (None, 8, 5, 32)          0         
_________________________________________________________________
conv2d_8 (Conv2D)            (None, 8, 5, 32)          9248      
_________________________________________________________________
max_pooling2d_8 (MaxPooling2 (None, 4, 2, 32)          0         
_________________________________________________________________
flatten_2 (Flatten)          (None, 256)               0         
_________________________________________________________________
dense_4 (Dense)              (None, 256)               65792     
_________________________________________________________________
dense_5 (Dense)              (None, 11)                2827      
=================================================================
Total params: 88,023
Trainable params: 88,017
Non-trainable params: 6
_________________________________________________________________
1067
(1067, 32, 20, 3)
(1067, 11)
(853, 32, 20, 3)
(214, 32, 20, 3)
Epoch 1/100
  1/214 [..............................] - ETA: 2:10 - loss: 4.7891e-04 - accuracy: 1.0000
…
20220215	1067	97	0.0059182969853281975	0.056225236505270004
20220215	1067	98	0.011071623302996159	5.741217319155112e-05
20220215	1067	99	0.0016232025809586048	0.020331233739852905
20220215	1067	100	0.00023953738855198026	0.015740901231765747
dig-s2
File Exists
ziffer_resize/NaN_0_ht6_20210628-182853.jpg -1 9
ziffer_resize/NaN_6_dig6_20210720-121946.jpg -1 8
dig-s3
a_output_actual/dig-s3
File Exists
Model: "sequential_3"
_________________________________________________________________
Layer (type)                 Output Shape              Param #   
=================================================================
batch_normalization_3 (Batch (None, 32, 20, 3)         12        
_________________________________________________________________
conv2d_9 (Conv2D)            (None, 32, 20, 32)        896       
_________________________________________________________________
max_pooling2d_9 (MaxPooling2 (None, 16, 10, 32)        0         
_________________________________________________________________
conv2d_10 (Conv2D)           (None, 16, 10, 32)        9248      
_________________________________________________________________
max_pooling2d_10 (MaxPooling (None, 8, 5, 32)          0         
_________________________________________________________________
conv2d_11 (Conv2D)           (None, 8, 5, 32)          9248      
_________________________________________________________________
max_pooling2d_11 (MaxPooling (None, 4, 2, 32)          0         
_________________________________________________________________
flatten_3 (Flatten)          (None, 256)               0         
_________________________________________________________________
dense_6 (Dense)              (None, 128)               32896     
_________________________________________________________________
dense_7 (Dense)              (None, 11)                1419      
=================================================================
Total params: 53,719
Trainable params: 53,713
Non-trainable params: 6
_________________________________________________________________
1067
(1067, 32, 20, 3)
(1067, 11)
(853, 32, 20, 3)
(214, 32, 20, 3)
Epoch 1/100
  1/214 [..............................] - ETA: 1:19 - loss: 0.0000e+00 - accuracy: 1.0000
…
