…
in: ziffer_raw/5_1619417105694-digit2.jpg  -  out: ziffer_resize/5_1619417105694-digit2.jpg
in: ziffer_raw/NaN_D8_2020-08-22_02-50-08.jpg  -  out: ziffer_resize/NaN_D8_2020-08-22_02-50-08.jpg
in: ziffer_raw/NaN_6_dig6_20210723-044733.jpg  -  out: ziffer_resize/NaN_6_dig6_20210723-044733.jpg
in: ziffer_raw/2_ziffer3_2019-11-24_08-07-51.jpg  -  out: ziffer_resize/2_ziffer3_2019-11-24_08-07-51.jpg
dig-s0
a_output_actual/dig-s0
File Exists
Model: "sequential"
_________________________________________________________________
 Layer (type)                Output Shape              Param #   
=================================================================
 batch_normalization (BatchN  (None, 32, 20, 3)        12        
 ormalization)                                                   
                                                                 
 conv2d (Conv2D)             (None, 32, 20, 32)        896       
                                                                 
 max_pooling2d (MaxPooling2D  (None, 16, 10, 32)       0         
 )                                                               
                                                                 
 conv2d_1 (Conv2D)           (None, 16, 10, 64)        18496     
                                                                 
 max_pooling2d_1 (MaxPooling  (None, 8, 5, 64)         0         
 2D)                                                             
                                                                 
 conv2d_2 (Conv2D)           (None, 8, 5, 64)          36928     
                                                                 
 max_pooling2d_2 (MaxPooling  (None, 4, 2, 64)         0         
 2D)                                                             
                                                                 
 flatten (Flatten)           (None, 512)               0         
                                                                 
 dense (Dense)               (None, 512)               262656    
                                                                 
 dense_1 (Dense)             (None, 11)                5643      
                                                                 
=================================================================
Total params: 324,631
Trainable params: 324,625
Non-trainable params: 6
_________________________________________________________________
1064
(1064, 32, 20, 3)
(1064, 11)
(851, 32, 20, 3)
(213, 32, 20, 3)
Epoch 1/100
  1/213 [..............................] -
…
213/213 [==============================] - 2s 10ms/step - loss: 0.0106 - accuracy: 0.9976 - val_loss: 0.1585 - val_accuracy: 0.9906
dig-s0
File Exists
ziffer_resize/6_Ziffer_6_0065.jpg 6 8
ziffer_resize/9_2022-01-09_6.jpg 9 0
ziffer_resize/NaN_8_nt7_20210627-023843.jpg -1 9
dig-s1
a_output_actual/dig-s1
File Exists
Model: "sequential_1"
_________________________________________________________________
 Layer (type)                Output Shape              Param #   
=================================================================
 batch_normalization_1 (Batc  (None, 32, 20, 3)        12        
 hNormalization)                                                 
                                                                 
 conv2d_3 (Conv2D)           (None, 32, 20, 32)        896       
                                                                 
 max_pooling2d_3 (MaxPooling  (None, 16, 10, 32)       0         
 2D)                                                             
                                                                 
 conv2d_4 (Conv2D)           (None, 16, 10, 64)        18496     
                                                                 
 max_pooling2d_4 (MaxPooling  (None, 8, 5, 64)         0         
 2D)                                                             
                                                                 
 conv2d_5 (Conv2D)           (None, 8, 5, 64)          36928     
                                                                 
 max_pooling2d_5 (MaxPooling  (None, 4, 2, 64)         0         
 2D)                                                             
                                                                 
 flatten_1 (Flatten)         (None, 512)               0         
                                                                 
 dense_2 (Dense)             (None, 256)               131328    
                                                                 
 dense_3 (Dense)             (None, 11)                2827      
                                                                 
=================================================================
Total params: 190,487
Trainable params: 190,481
Non-trainable params: 6
_________________________________________________________________
1064
(1064, 32, 20, 3)
(1064, 11)
(851, 32, 20, 3)
(213, 32, 20, 3)
Epoch 1/100
  1/213 [..............................] -
…
20220109	1064	96	0.05040968954563141	0.15245559811592102
20220109	1064	97	0.04267863929271698	0.09864211827516556
20220109	1064	98	0.021587716415524483	0.017823349684476852
20220109	1064	99	0.041034527122974396	0.03575565665960312
20220109	1064	100	0.07147978246212006	0.07974252849817276
dig-s1
File Exists
ziffer_resize/NaN_0_ht6_20210628-182853.jpg -1 9
dig-s2
a_output_actual/dig-s2
File Exists
Model: "sequential_2"
_________________________________________________________________
 Layer (type)                Output Shape              Param #   
=================================================================
 batch_normalization_2 (Batc  (None, 32, 20, 3)        12        
 hNormalization)                                                 
                                                                 
 conv2d_6 (Conv2D)           (None, 32, 20, 32)        896       
                                                                 
 max_pooling2d_6 (MaxPooling  (None, 16, 10, 32)       0         
 2D)                                                             
                                                                 
 conv2d_7 (Conv2D)           (None, 16, 10, 32)        9248      
                                                                 
 max_pooling2d_7 (MaxPooling  (None, 8, 5, 32)         0         
 2D)                                                             
                                                                 
 conv2d_8 (Conv2D)           (None, 8, 5, 32)          9248      
                                                                 
 max_pooling2d_8 (MaxPooling  (None, 4, 2, 32)         0         
 2D)                                                             
                                                                 
 flatten_2 (Flatten)         (None, 256)               0         
                                                                 
 dense_4 (Dense)             (None, 256)               65792     
                                                                 
 dense_5 (Dense)             (None, 11)                2827      
                                                                 
=================================================================
Total params: 88,023
Trainable params: 88,017
Non-trainable params: 6
_________________________________________________________________
1064
(1064, 32, 20, 3)
(1064, 11)
(851, 32, 20, 3)
(213, 32, 20, 3)
Epoch 1/100
  1/213 [..............................] - E
…
20220109	1064	96	0.011252207681536674	0.009322748519480228
20220109	1064	97	0.015973398461937904	0.17367103695869446
20220109	1064	98	0.03802473843097687	0.04607119783759117
20220109	1064	99	0.015551897697150707	0.00581848481670022
20220109	1064	100	0.0013672516215592623	0.2622772753238678
dig-s2
File Exists
ziffer_resize/NaN_ziffer5_2020-04-16_11-40-06.jpg -1 5
dig-s3
a_output_actual/dig-s3
File Exists
Model: "sequential_3"
_________________________________________________________________
 Layer (type)                Output Shape              Param #   
=================================================================
 batch_normalization_3 (Batc  (None, 32, 20, 3)        12        
 hNormalization)                                                 
                                                                 
 conv2d_9 (Conv2D)           (None, 32, 20, 32)        896       
                                                                 
 max_pooling2d_9 (MaxPooling  (None, 16, 10, 32)       0         
 2D)                                                             
                                                                 
 conv2d_10 (Conv2D)          (None, 16, 10, 32)        9248      
                                                                 
 max_pooling2d_10 (MaxPoolin  (None, 8, 5, 32)         0         
 g2D)                                                            
                                                                 
 conv2d_11 (Conv2D)          (None, 8, 5, 32)          9248      
                                                                 
 max_pooling2d_11 (MaxPoolin  (None, 4, 2, 32)         0         
 g2D)                                                            
                                                                 
 flatten_3 (Flatten)         (None, 256)               0         
                                                                 
 dense_6 (Dense)             (None, 128)               32896     
                                                                 
 dense_7 (Dense)             (None, 11)                1419      
                                                                 
=================================================================
Total params: 53,719
Trainable params: 53,713
Non-trainable params: 6
_________________________________________________________________
1064
(1064, 32, 20, 3)
(1064, 11)
(851, 32, 20, 3)
(213, 32, 20, 3)
Epoch 1/100
  1/213 [..............................] - E
…
