…
in: ziffer_raw/NaN_ziffer5_2020-05-09_06-00-07.jpg  -  out: ziffer_resize/NaN_ziffer5_2020-05-09_06-00-07.jpg
in: ziffer_raw/9.0_github417.jpg  -  out: ziffer_resize/9.0_github417.jpg
in: ziffer_raw/7_7_ROI1_20210605-094214.jpg  -  out: ziffer_resize/7_7_ROI1_20210605-094214.jpg
in: ziffer_raw/NaN_ziffer1_2020-04-16_13-00-06.jpg  -  out: ziffer_resize/NaN_ziffer1_2020-04-16_13-00-06.jpg
dig-s0
a_output_actual/dig-s0
File Exists
Model: "sequential"
_________________________________________________________________
Layer (type)                 Output Shape              Param #   
=================================================================
batch_normalization (BatchNo (None, 32, 20, 3)         12        
_________________________________________________________________
conv2d (Conv2D)              (None, 32, 20, 32)        896       
_________________________________________________________________
max_pooling2d (MaxPooling2D) (None, 16, 10, 32)        0         
_________________________________________________________________
conv2d_1 (Conv2D)            (None, 16, 10, 64)        18496     
_________________________________________________________________
max_pooling2d_1 (MaxPooling2 (None, 8, 5, 64)          0         
_________________________________________________________________
conv2d_2 (Conv2D)            (None, 8, 5, 64)          36928     
_________________________________________________________________
max_pooling2d_2 (MaxPooling2 (None, 4, 2, 64)          0         
_________________________________________________________________
flatten (Flatten)            (None, 512)               0         
_________________________________________________________________
dense (Dense)                (None, 512)               262656    
_________________________________________________________________
dense_1 (Dense)              (None, 11)                5643      
=================================================================
Total params: 324,631
Trainable params: 324,625
Non-trainable params: 6
_________________________________________________________________
1045
(1045, 32, 20, 3)
(1045, 11)
(836, 32, 20, 3)
(209, 32, 20, 3)
Epoch 1/100
  1/209 [..............................] - ETA: 2:08 - loss: 0.0000e+00 - accuracy: 1.0000
…
209/209 [==============================] - 2s 11ms/step - loss: 1.8989e-06 - accuracy: 1.0000 - val_loss: 0.2765 - val_accuracy: 0.9904
dig-s0
File Exists
ziffer_resize/1_2022-01-09.jpg 1 3
ziffer_resize/8_2022-01-09_1.jpg 8 -1
dig-s1
a_output_actual/dig-s1
File Exists
Model: "sequential_1"
_________________________________________________________________
Layer (type)                 Output Shape              Param #   
=================================================================
batch_normalization_1 (Batch (None, 32, 20, 3)         12        
_________________________________________________________________
conv2d_3 (Conv2D)            (None, 32, 20, 32)        896       
_________________________________________________________________
max_pooling2d_3 (MaxPooling2 (None, 16, 10, 32)        0         
_________________________________________________________________
conv2d_4 (Conv2D)            (None, 16, 10, 64)        18496     
_________________________________________________________________
max_pooling2d_4 (MaxPooling2 (None, 8, 5, 64)          0         
_________________________________________________________________
conv2d_5 (Conv2D)            (None, 8, 5, 64)          36928     
_________________________________________________________________
max_pooling2d_5 (MaxPooling2 (None, 4, 2, 64)          0         
_________________________________________________________________
flatten_1 (Flatten)          (None, 512)               0         
_________________________________________________________________
dense_2 (Dense)              (None, 256)               131328    
_________________________________________________________________
dense_3 (Dense)              (None, 11)                2827      
=================================================================
Total params: 190,487
Trainable params: 190,481
Non-trainable params: 6
_________________________________________________________________
1045
(1045, 32, 20, 3)
(1045, 11)
(836, 32, 20, 3)
(209, 32, 20, 3)
Epoch 1/100
  1/209 [..............................] - ETA: 1:47 - loss: 0.0000e+00 - accuracy: 1.0000
…
20220109	1045	97	0.00031988401315174997	0.5581271648406982
20220109	1045	98	1.187922293865995e-06	1.5110251903533936
20220109	1045	99	1.5590933344356017e-06	0.6001679301261902
20220109	1045	100	2.0139041225775145e-06	1.3692244291305542
dig-s1
File Exists
ziffer_resize/2_2022-01-09.jpg 2 -1
ziffer_resize/2_2022-01-09_1.jpg 2 -1
ziffer_resize/8_2022-01-09_1.jpg 8 -1
dig-s2
a_output_actual/dig-s2
File Exists
Model: "sequential_2"
_________________________________________________________________
Layer (type)                 Output Shape              Param #   
=================================================================
batch_normalization_2 (Batch (None, 32, 20, 3)         12        
_________________________________________________________________
conv2d_6 (Conv2D)            (None, 32, 20, 32)        896       
_________________________________________________________________
max_pooling2d_6 (MaxPooling2 (None, 16, 10, 32)        0         
_________________________________________________________________
conv2d_7 (Conv2D)            (None, 16, 10, 32)        9248      
_________________________________________________________________
max_pooling2d_7 (MaxPooling2 (None, 8, 5, 32)          0         
_________________________________________________________________
conv2d_8 (Conv2D)            (None, 8, 5, 32)          9248      
_________________________________________________________________
max_pooling2d_8 (MaxPooling2 (None, 4, 2, 32)          0         
_________________________________________________________________
flatten_2 (Flatten)          (None, 256)               0         
_________________________________________________________________
dense_4 (Dense)              (None, 256)               65792     
_________________________________________________________________
dense_5 (Dense)              (None, 11)                2827      
=================================================================
Total params: 88,023
Trainable params: 88,017
Non-trainable params: 6
_________________________________________________________________
1045
(1045, 32, 20, 3)
(1045, 11)
(836, 32, 20, 3)
(209, 32, 20, 3)
Epoch 1/100
  1/209 [..............................] - ETA: 1:45 - loss: 0.0000e+00 - accuracy: 1.0000
…
20220109	1045	97	0.001973286271095276	0.15707771480083466
20220109	1045	98	3.624672535806894e-05	0.2078072428703308
20220109	1045	99	0.004108427092432976	0.3216468393802643
20220109	1045	100	0.002698789117857814	0.2640988230705261
dig-s2
File Exists
ziffer_resize/1_2022-01-09.jpg 1 3
ziffer_resize/8_2022-01-09.jpg 8 9
dig-s3
a_output_actual/dig-s3
File Exists
Model: "sequential_3"
_________________________________________________________________
Layer (type)                 Output Shape              Param #   
=================================================================
batch_normalization_3 (Batch (None, 32, 20, 3)         12        
_________________________________________________________________
conv2d_9 (Conv2D)            (None, 32, 20, 32)        896       
_________________________________________________________________
max_pooling2d_9 (MaxPooling2 (None, 16, 10, 32)        0         
_________________________________________________________________
conv2d_10 (Conv2D)           (None, 16, 10, 32)        9248      
_________________________________________________________________
max_pooling2d_10 (MaxPooling (None, 8, 5, 32)          0         
_________________________________________________________________
conv2d_11 (Conv2D)           (None, 8, 5, 32)          9248      
_________________________________________________________________
max_pooling2d_11 (MaxPooling (None, 4, 2, 32)          0         
_________________________________________________________________
flatten_3 (Flatten)          (None, 256)               0         
_________________________________________________________________
dense_6 (Dense)              (None, 128)               32896     
_________________________________________________________________
dense_7 (Dense)              (None, 11)                1419      
=================================================================
Total params: 53,719
Trainable params: 53,713
Non-trainable params: 6
_________________________________________________________________
1045
(1045, 32, 20, 3)
(1045, 11)
(836, 32, 20, 3)
(209, 32, 20, 3)
Epoch 1/100
  1/209 [..............................] - ETA: 1:43 - loss: 0.0000e+00 - accuracy: 1.0000
…
