…
in: ziffer_raw/NaN_ziffer4_2020-05-17_21-50-12.jpg  -  out: ziffer_resize/NaN_ziffer4_2020-05-17_21-50-12.jpg
in: ziffer_raw/NaN_20200814-015636_digit3.jpg  -  out: ziffer_resize/NaN_20200814-015636_digit3.jpg
in: ziffer_raw/0_ziffer4_2020-02-11_15-31-20.jpg  -  out: ziffer_resize/0_ziffer4_2020-02-11_15-31-20.jpg
dig-s0
a_output_actual/dig-s0
File Exists
Model: "sequential"
_________________________________________________________________
Layer (type)                 Output Shape              Param #   
=================================================================
batch_normalization (BatchNo (None, 32, 20, 3)         12        
_________________________________________________________________
conv2d (Conv2D)              (None, 32, 20, 32)        896       
_________________________________________________________________
max_pooling2d (MaxPooling2D) (None, 16, 10, 32)        0         
_________________________________________________________________
conv2d_1 (Conv2D)            (None, 16, 10, 64)        18496     
_________________________________________________________________
max_pooling2d_1 (MaxPooling2 (None, 8, 5, 64)          0         
_________________________________________________________________
conv2d_2 (Conv2D)            (None, 8, 5, 64)          36928     
_________________________________________________________________
max_pooling2d_2 (MaxPooling2 (None, 4, 2, 64)          0         
_________________________________________________________________
flatten (Flatten)            (None, 512)               0         
_________________________________________________________________
dense (Dense)                (None, 512)               262656    
_________________________________________________________________
dense_1 (Dense)              (None, 11)                5643      
=================================================================
Total params: 324,631
Trainable params: 324,625
Non-trainable params: 6
_________________________________________________________________
1066
(1066, 32, 20, 3)
(1066, 11)
(852, 32, 20, 3)
(214, 32, 20, 3)
Epoch 1/100
  1/213 [..............................] - ETA: 1:29 - loss: 0.0000e+00 - accuracy: 1.0000
…
============================] - 1s 7ms/step - loss: 1.4035e-05 - accuracy: 1.0000 - val_loss: 0.2762 - val_accuracy: 0.9860
dig-s0
File Exists
ziffer_resize/0_2022-01-09_4.jpg 0 8
ziffer_resize/7_2022-01-09_1.jpg 7 1
ziffer_resize/9_2022-01-09_6.jpg 9 0
ziffer_resize/NaN_ziffer5_2020-04-16_11-40-06.jpg -1 5
dig-s1
a_output_actual/dig-s1
File Exists
Model: "sequential_1"
_________________________________________________________________
Layer (type)                 Output Shape              Param #   
=================================================================
batch_normalization_1 (Batch (None, 32, 20, 3)         12        
_________________________________________________________________
conv2d_3 (Conv2D)            (None, 32, 20, 32)        896       
_________________________________________________________________
max_pooling2d_3 (MaxPooling2 (None, 16, 10, 32)        0         
_________________________________________________________________
conv2d_4 (Conv2D)            (None, 16, 10, 64)        18496     
_________________________________________________________________
max_pooling2d_4 (MaxPooling2 (None, 8, 5, 64)          0         
_________________________________________________________________
conv2d_5 (Conv2D)            (None, 8, 5, 64)          36928     
_________________________________________________________________
max_pooling2d_5 (MaxPooling2 (None, 4, 2, 64)          0         
_________________________________________________________________
flatten_1 (Flatten)          (None, 512)               0         
_________________________________________________________________
dense_2 (Dense)              (None, 256)               131328    
_________________________________________________________________
dense_3 (Dense)              (None, 11)                2827      
=================================================================
Total params: 190,487
Trainable params: 190,481
Non-trainable params: 6
_________________________________________________________________
1066
(1066, 32, 20, 3)
(1066, 11)
(852, 32, 20, 3)
(214, 32, 20, 3)
Epoch 1/100
  1/213 [..............................] - ETA: 1:12 - loss: 0.0000e+00 - accuracy: 1.0000
…
20220209	1066	99	0.0422205813229084	0.026054291054606438
20220209	1066	100	1.7146814570878632e-05	0.022348856553435326
dig-s1
File Exists
ziffer_resize/0-1_5_20211231-062402.jpg 0 8
ziffer_resize/4_2022-01-09.jpg 4 1
ziffer_resize/4_2022-01-09_1.jpg 4 1
ziffer_resize/4_4_ROI6_20210222-132331.jpg 4 7
ziffer_resize/NaN_6_ROI6_20210218-112840.jpg -1 5
dig-s2
a_output_actual/dig-s2
File Exists
Model: "sequential_2"
_________________________________________________________________
Layer (type)                 Output Shape              Param #   
=================================================================
batch_normalization_2 (Batch (None, 32, 20, 3)         12        
_________________________________________________________________
conv2d_6 (Conv2D)            (None, 32, 20, 32)        896       
_________________________________________________________________
max_pooling2d_6 (MaxPooling2 (None, 16, 10, 32)        0         
_________________________________________________________________
conv2d_7 (Conv2D)            (None, 16, 10, 32)        9248      
_________________________________________________________________
max_pooling2d_7 (MaxPooling2 (None, 8, 5, 32)          0         
_________________________________________________________________
conv2d_8 (Conv2D)            (None, 8, 5, 32)          9248      
_________________________________________________________________
max_pooling2d_8 (MaxPooling2 (None, 4, 2, 32)          0         
_________________________________________________________________
flatten_2 (Flatten)          (None, 256)               0         
_________________________________________________________________
dense_4 (Dense)              (None, 256)               65792     
_________________________________________________________________
dense_5 (Dense)              (None, 11)                2827      
=================================================================
Total params: 88,023
Trainable params: 88,017
Non-trainable params: 6
_________________________________________________________________
1066
(1066, 32, 20, 3)
(1066, 11)
(852, 32, 20, 3)
(214, 32, 20, 3)
Epoch 1/100
  1/213 [..............................] - ETA: 1:10 - loss: 0.0000e+00 - accuracy: 1.0000
…
20220209	1066	98	0.02460293099284172	0.009163465350866318
20220209	1066	99	0.003174304962158203	0.017885921522974968
20220209	1066	100	0.012494451366364956	0.06430301815271378
dig-s2
File Exists
ziffer_resize/7_2022-01-09.jpg 7 2
ziffer_resize/7_2022-01-09_1.jpg 7 4
ziffer_resize/NaN_0_ht6_20210628-182853.jpg -1 9
dig-s3
a_output_actual/dig-s3
File Exists
Model: "sequential_3"
_________________________________________________________________
Layer (type)                 Output Shape              Param #   
=================================================================
batch_normalization_3 (Batch (None, 32, 20, 3)         12        
_________________________________________________________________
conv2d_9 (Conv2D)            (None, 32, 20, 32)        896       
_________________________________________________________________
max_pooling2d_9 (MaxPooling2 (None, 16, 10, 32)        0         
_________________________________________________________________
conv2d_10 (Conv2D)           (None, 16, 10, 32)        9248      
_________________________________________________________________
max_pooling2d_10 (MaxPooling (None, 8, 5, 32)          0         
_________________________________________________________________
conv2d_11 (Conv2D)           (None, 8, 5, 32)          9248      
_________________________________________________________________
max_pooling2d_11 (MaxPooling (None, 4, 2, 32)          0         
_________________________________________________________________
flatten_3 (Flatten)          (None, 256)               0         
_________________________________________________________________
dense_6 (Dense)              (None, 128)               32896     
_________________________________________________________________
dense_7 (Dense)              (None, 11)                1419      
=================================================================
Total params: 53,719
Trainable params: 53,713
Non-trainable params: 6
_________________________________________________________________
1066
(1066, 32, 20, 3)
(1066, 11)
(852, 32, 20, 3)
(214, 32, 20, 3)
Epoch 1/100
  1/213 [..............................] - ETA: 1:45 - loss: 7.2627e-04 - accuracy: 1.0000
…
